trained_models/subtractor.model (npz, 53732 bytes, 5 tensors)

conv2/b f4 [32]
-0.048934713 -0.05178067 0.010696592 0.096240535 -0.18635784 0.08337278 0.063189186 0.23366493
0.06838019 -0.06276738 -0.27077758 -0.12505698 -0.564295 -0.15255196 0.0040245918 -0.028427558
-0.019260567 0.16126621 0.1661686 -0.4841183 -0.12637527 -0.0045075407 -0.046069972 0.046224
0.18070826 -0.06103626 -0.09368248 -0.0011908314 -0.15482542 -0.08800567 0.056252386 -0.078022376
00000000: c46f 48bd f817 54bd c240 2f3c c219 c53d
00000010: 97d4 3ebe 59bf aa3d 5569 813d dc45 6f3e
00000020: ea0a 8c3d 2f8c 80bd 5ca3 8abe f00e 00be
00000030: a375 10bf 9536 1cbe b9e0 833b e9e0 e8bc
00000040: 56c8 9dbc f822 253e 1a28 2a3e 5bde f7be
00000050: 8568 01be feb3 93bb deb3 3cbd 6155 3d3d
00000060: 960b 393e 2801 7abd 9adc bfbd ac15 9cba
00000070: 8e8a 1ebe 513c b4bd e768 663d 32ca 9fbd

conv2/W f4 [32, 16, 5, 5]
0.04687709 -0.0686707 -0.024160864 0.10458254 0.08765701 0.110326886 -0.04310981 -0.04781036
0.077038586 0.0170596 0.026576389 -0.03636918 -0.100310296 -0.027673958 -0.01900205 0.023046905
-0.06824472 -0.0997541 0.0147995455 -0.02658719 0.05254993 0.017780382 -0.060723122 -0.042283405
0.007628545 -0.03250399 -0.018272707 -0.007604453 0.045483653 0.018644836 -0.014011806 0.024529539
-0.011773972 -0.085266426 0.013056912 -0.018162707 0.020420708 -0.058522355 0.015336378 0.031821072
-0.08808876 -0.009136929 0.041261226 -0.03420221 0.016925653 -0.0006604472 0.012384808 0.066514045
0.052838285 0.073416024 -0.025413191 0.013191164 -0.07577818 -0.016015492 0.010750331 -0.050888848
0.0120052565 0.0031415154 0.035715148 0.045806892 -0.06547366 -0.015536487 -0.004438251 0.024396349
0.05689793 0.0009867668 -0.0065551335 0.05197831 0.016552543 0.021062812 0.0460618 0.029200848
-0.023093773 0.004315102 0.02973129 -0.038035475 0.053737596 0.13156746 0.15594517 0.054218136
-0.064486444 -0.10531489 0.006092467 0.020369066 0.010167976 -0.0008489747 -0.068149485 -0.03653093
-0.08675555 -0.03650347 0.033290964 -0.02422224 0.023253422 0.007956652 0.07189101 -0.011264675
-0.038780943 -0.005886414 0.029190013 0.04314321 0.005038624 0.008510055 -0.024133978 -0.016941782
-0.030166373 0.008707074 -0.052479897 -0.060125094 -0.03355964 -0.03895631 -0.041683972 -0.058929
0.00038324718 0.018795215 -0.046487585 0.011527718 0.0320233 -0.067904696 0.0018216331 0.013334797
-0.0016438455 -0.005289854 -0.05113136 0.08357437 0.018062335 -0.017758358 0.06264141 -0.028773185
-0.0034402765 0.010525146 -0.025884762 0.051319435 0.04941517 0.038254905 -0.008663005 0.046305142
-0.0066035683 -0.033001784 0.017549621 0.018329952 0.00011260634 0.05095619 -0.032326076 0.026748838
-0.0071670497 0.011313971 0.004958174 -0.020532252 -0.03702386 0.0050961263 -0.04537917 0.015653169
-0.08525088 0.026160572 0.0144667085 -0.0041122464 -0.015002707 -0.010554696 -0.019207612 0.036956884
0.037227377 -0.08255888 -0.100006215 -0.07227525 0.05396286 0.06197546 0.024540337 -0.0390323
-0.030917434 0.050809167 0.042135436 0.0799401 0.048837386 0.11489521 0.07798733 -0.087185666
-0.0075238086 -0.056632895 -0.0046759835 -0.048666723 -0.008360795 -0.06510204 -0.024549682 0.03339272
0.010790053 -0.019659242 0.017784035 -0.018208787 0.03898507 0.02951955 0.052118164 0.015682345
0.04256921 0.044641446 0.074485645 0.05025137 0.039279535 -0.09591525 -0.084930606 -0.007934583
0.026576431 -0.008735302 0.065261535 0.035006963 -0.05345176 0.00019669867 -0.014254943 -0.004663853
-0.021126932 -0.0297465 -0.087369375 -0.08642462 -0.0183564 -0.05314942 -0.09347171 -0.02988243
-0.041720986 -0.06465073 -0.03566621 0.040773153 -0.036273133 0.013972456 0.050811276 0.047464244
0.110800974 0.020640118 0.04924855 0.0166229 -0.02503467 -0.03470223 0.015182347 0.0511591
0.0444925 -0.027880173 0.014634922 -0.05598841 -0.055327162 -0.085576035 -0.052590813 -0.004898515
0.0017709945 0.01998591 -0.009404032 -0.014795691 0.022493802 0.025767028 0.12611665 0.07343338
0.047763363 0.027469283 -0.037604295 -0.01405604 0.045280702 0.026722595 -0.09006788 -0.069283105
00000000: 3102 403d 39a3 8cbd 01ed c5bc 5f2f d63d
00000010: 8585 b33d 10f3 e13d ea93 30bd ccd4 43bd
00000020: 68c6 9d3d 93c0 8b3c bab6 d93c d9f7 14bd
00000030: 7c6f cdbd 7fb4 e2bc 30aa 9bbc ddcc bc3c
00000040: e3c3 8bbd e14b ccbd cb79 723c 61cd d9bc
00000050: 983e 573d 2aa8 913c cfb8 78bd 5d31 2dbd
00000060: e0f8 f93b e722 05bd a5b0 95bc c62e f9bb
00000070: 114d 3a3d 0ebd 983c c691 65bc 2cf2 c83c
00000080: 9ee7 40bc 2aa0 aebd a9ec 553c f5c9 94bc
00000090: 5449 a73c 23b5 6fbd 6e45 7b3c d056 023d
000000a0: e167 b4bd 0fb3 15bc 8801 293d 9e17 0cbd
000000b0: aba7 8a3c dc21 2dba a6e9 4a3c 8438 883d
000000c0: f56c 583d 245b 963d 532f d0bc c01f 583c
000000d0: 9731 9bbd ec32 83bc 2822 303c d370 50bd
000000e0: b2b1 443c e2e1 4d3b 0c4a 123d 02a0 3b3d
000000f0: 0e17 86bd c08c 7ebc bf6e 91bb dada c73c
00000100: ce0d 693d 6656 813a 72cc d6bb 35e7 543d
00000110: 3399 873c eb8b ac3c 4cab 3c3d 9e36 ef3c
00000120: 272f bdbc b365 8d3b 098f f33c 16cb 1bbd
00000130: f41b 5c3d 9fb9 063e 17b0 1f3e d613 5e3d
00000140: 7811 84bd 55af d7bd 51a3 c73b 07dd a63c
00000150: 9597 263c ba8d 5eba f591 8bbd 75a1 15bd
00000160: e5ac b1bd aa84 15bd 1b5c 083d b86d c6bc
00000170: f67d be3c 9e5c 023c 983b 933d 798f 38bc
00000180: c4d8 1ebd d2e2 c0bb e51f ef3c efb6 303d
00000190: 0b1b a53b c26d 0b3c 9fb4 c5bc 7ec9 8abc
000001a0: 781f f7bc 1ea8 0e3c 29f5 56bd bb45 76bd
000001b0: d575 09bd a790 1fbd d0bc 2abd 895f 71bd
000001c0: 91ee c839 6cf8 993c c469 3ebd c1de 3c3c
000001d0: dd2a 033d 9e11 8bbd ddc3 ee3a 317a 5a3c
000001e0: 4d76 d7ba 8356 adbb 1e6f 51bd 0a29 ab3d
000001f0: 76f7 933c fa79 91bc 244a 803d beb5 ebbc
00000200: 4376 61bb a971 2c3c 480c d4bc 5434 523d
00000210: 9067 4a3d 2db1 1c3d 47ef 0dbc 76aa 3d3d
00000220: bf62 d8bb e12c 07bd 39c4 8f3c b228 963c
00000230: 1227 ec38 70b7 503d 5968 04bd 6120 db3c
00000240: 92d9 eabb 3c5e 393c 2e78 a23b 4133 a8bc
00000250: 55a6 17bd 68fd a63b 82df 39bd 133b 803c
00000260: 0398 aebd b24e d63c c605 6d3c 06c0 86bb
00000270: eacd 75bc 9bed 2cbc 4859 9dbc 1a60 173d
00000280: bc7b 183d a114 a9bd 0fd0 ccbd 0c05 94bd
00000290: 2908 5d3d fbd9 7d3d d108 c93c 55e0 1fbd
000002a0: 8f46 fdbc 461d 503d 3596 2c3d a3b7 a33d
000002b0: b609 483d 2e4e eb3d d2b7 9f3d 668e b2bd
000002c0: 488a f6bb e5f7 67bd fe38 99bb c256 47bd
000002d0: b7fb 08bc 3854 85bd 6a1c c9bc cec6 083d
000002e0: c3c8 303c 6b0c a1bc d3af 913c 982a 95bc
000002f0: cfae 1f3d fcd2 f13c db79 553d 4378 803c
00000300: 0d5d 2e3d f3d9 363d ee8b 983d 61d4 4d3d
00000310: 94e3 203d 376f c4bd 19f0 adbd 0e00 02bc
00000320: d1b6 d93c 831e 0fbc d7a7 853d 7663 0f3d
00000330: 3cf0 5abd e640 4e39 908d 69bc 3cd3 98bb
00000340: 6312 adbc efae f3bc b7ee b2bd 64ff b0bd
00000350: 2960 96bc 35b3 59bd 196e bfbd ffcb f4bc
00000360: a0e3 2abd 9a67 84bd bb16 12bd c001 273d
00000370: 2393 14bd baec 643c 7c1f 503d de69 423d
00000380: 9feb e23d 7715 a93c d9b8 493d bf2c 883c
00000390: 8215 cdbc ed23 0ebd 61bf 783c 348c 513d
000003a0: c53d 363d f664 e4bc 50c7 6f3c 1a54 65bd
000003b0: bc9e 62bd 7d42 afbd 7769 57bd b983 a0bb
000003c0: b720 e83a 7eb9 a33c 5e13 1abc a069 72bc
000003d0: ec44 b83c 6015 d33c b924 013e 3d64 963d
000003e0: 84a3 433d 4307 e13c f606 1abd 4e4b 66bc
000003f0: 4278 393d 58e9 da3c 8275 b8bd 4de4 8dbd

classifier/W f4 [1, 32, 1, 1]
0.0010439132 0.0007824858 0.0034777618 -4.155965e-05 0.015875557 -0.10907014 -0.005702887 0.11858462
-0.07592599 0.037397526 0.07907991 0.0011680479 0.09491218 0.0014075228 -0.20335257 -0.09339481
-0.051892474 -0.10081539 -0.0030759268 0.045173414 0.081922986 -0.10840294 -2.218325e-05 0.0016593025
-0.014794578 0.00032475233 -0.00069923676 0.1141574 0.004439829 -0.0017032829 -0.0006413073 -0.0017697371
00000000: ead3 883a bc1f 4d3a 29eb 633b 5650 2eb8
00000010: 750d 823c 2a60 dfbd 49df babb 7edc f23d
00000020: 167f 9bbd 262e 193d a6f4 a13d 2f19 993a
00000030: 5161 c23d a17c b83a a83b 50be c745 bfbd
00000040: 348d 54bd 4d78 cebd 7d95 49bb c207 393d
00000050: 3dc7 a73d 5c02 debd 2b16 bab7 f47c d93a
00000060: f564 72bc 8543 aa39 fc4c 37ba 5bcb e93d
00000070: fc7b 913b b140 dfba 681d 28ba 86f6 e7ba

conv1/b f4 [16]
0.22559915 -0.53262174 -0.121846065 0.26092198 -0.25623482 -0.18327276 -0.194956 -0.18100257
0.22750752 -0.26931828 -0.4482872 -0.39554176 0.23946622 0.39401186 -0.74049073 -0.109409764
00000000: 7703 673e e659 08bf 6e8a f9bd 9197 853e
00000010: 3631 83be dbab 3bbe 8ca2 47be bd58 39be
00000020: bbf7 683e 16e4 89be e685 e5be 7384 cabe
00000030: a236 753e ecbb c93e cd90 3dbf 3a12 e0bd

conv1/W f4 [16, 3, 5, 5]
0.110693425 0.12913382 -0.07677451 0.1555681 0.09352596 0.102670714 0.05102842 -0.0047756946
-0.2438082 -0.13061523 0.0566259 0.14936933 -0.056469683 0.12464923 -0.21388644 0.046659827
0.2709615 -0.31884295 -0.12815103 0.17448963 0.28889185 0.26099584 -0.079501994 -0.5515848
-0.20659062 -0.15588374 -0.29266647 0.05377389 -0.21755625 -0.26875007 -0.15221295 -0.36502752
-0.14446323 0.23813775 0.17392533 -0.019183248 -0.16403499 -0.17213598 -0.07703124 -0.34342113
-0.25011095 -0.027937358 0.63618326 0.0996516 -0.28051248 -0.2243048 -0.026669268 0.6322972
0.3056661 0.173143 0.042039376 -0.10401956 0.057436932 -0.093510404 -0.14533386 0.06408344
0.2767649 0.20552458 -0.124064006 0.20644853 0.14014013 0.015030655 0.16469394 0.2732569
-0.03567867 0.04949837 -0.083168454 -0.18625085 0.24497227 0.24648093 0.009255295 0.14406854
-0.015742818 -0.3346678 -0.17505977 -0.014852194 0.0058123795 0.24196012 0.18933022 0.060704697
-0.021320766 0.06307329 0.10877763 0.0390717 0.18121383 -0.11110966 0.119153105 0.2370581
0.20928514 0.1550194 -0.1781111 -0.04606002 0.16385372 0.10501698 -0.0197439 -0.087493405
0.07936783 0.09770149 -0.016764648 0.011557397 -0.13975453 0.0028367876 -0.13616456 -0.18463603
-0.09199053 0.023628267 -0.020202825 0.06598887 -0.0818916 0.09751461 0.043589935 -0.14312913
-0.09593325 -0.020920353 0.008366061 -0.058653533 -0.04196227 -0.11081128 -0.10035844 0.05750442
-0.15986186 -0.16505298 -0.14929539 -0.15457675 -0.14813472 -0.060248055 -0.024684511 -0.0034856787
-0.13652255 -0.07293795 0.17734359 0.06585896 0.04500832 0.0060836454 0.028017322 0.2004573
0.24180165 0.18246163 0.18303642 0.044530347 -0.011685596 0.083048284 0.19987942 0.10204416
0.01670105 -0.034721874 -0.01874284 -0.015893286 0.023702491 0.07000638 -0.045229398 -0.20598795
-0.07876211 -0.27461356 -0.19940314 -0.078798875 -0.091270044 -0.16866761 -0.33480296 -0.33435327
-0.1050474 -0.09375595 -0.17185996 -0.09411725 -0.29047003 -0.10894459 0.00017802096 -0.10230185
0.07178147 -0.054819368 -0.19847348 -0.039384592 -0.08921848 -0.09010448 0.020480094 0.017837528
0.18446688 0.22161794 0.32452208 0.23093708 0.16701038 0.19002047 0.18378532 0.13484798
0.0020093664 0.14946137 0.23307115 0.2851794 0.101994924 0.11334465 -0.059965324 -0.0215321
0.037607003 0.12409751 -0.05864709 -0.0033013755 0.034245793 0.13584532 -0.09347156 -0.14074004
-0.071550384 0.13506006 0.03156416 0.13327259 0.045432158 -0.035714235 -0.012466305 -0.017121034
-0.049301147 -0.09139056 -0.03030242 -0.0031088863 -0.10151135 -0.10091473 0.043908685 -0.06479679
0.017053453 0.18443985 0.09985229 -0.008557601 -0.06374053 0.079188935 -0.013227846 0.007925864
-0.06465051 -0.05846377 0.06392455 0.21984965 0.0033277934 0.04155923 0.20039517 0.050648093
0.009961731 -0.35402828 -0.2523531 0.22760941 0.15822087 0.3467105 -0.010331066 -0.1334152
0.0026750795 -0.14695144 0.2761722 -0.03689129 -0.021054216 -0.0042824796 -0.15420713 0.0836472
0.15242161 -0.06995741 -0.17127872 -0.25038996 -0.22307271 0.1011882 -0.11998219 -0.060987156
00000000: 3cb3 e23d a83b 043e f43b 9dbd 3e4d 1f3e
00000010: 8a8a bf3d 0645 d23d 2d03 513d 6e7d 9cbb
00000020: dba8 79be 00c0 05be 8ff0 673d 46f4 183e
00000030: c14c 67bd 1848 ff3d 0c05 5bbe 601e 3f3d
00000040: 77bb 8a3e 623f a3be 063a 03be 69ad 323e
00000050: a2e9 933e 3fa1 853e f1d1 a2bd a934 0dbf
00000060: 7e8c 53be fd9f 1fbe 61d8 95be 0342 5c3d
00000070: 11c7 5ebe 9c99 89be b6dd 1bbe e3e4 babe
00000080: 2bee 13be 62da 733e 7b19 323e 3026 9dbc
00000090: caf8 27be 6a44 30be 8ec2 9dbd e5d4 afbe
000000a0: 8b0e 80be e3dc e4bc e8dc 223f 2316 cc3d
000000b0: 559f 8fbe 28b0 65be 8279 dabc 3bde 213f
000000c0: 4480 9c3e 664c 313e 7b31 2c3d 3508 d5bd
000000d0: fd42 6b3d 6282 bfbd 66d2 14be 2e3e 833d
000000e0: 21b4 8d3e 0975 523e 4515 febd 3e67 533e
000000f0: e580 0f3e 2343 763c 87a5 283e 54e8 8b3e
00000100: cc23 12bd cebe 4a3d 3954 aabd 8bb8 3ebe
00000110: 03da 7a3e 7f65 7c3e 85a3 173c b486 133e
00000120: 15f7 80bc 9459 abbe de42 33be 9e56 73bc
00000130: c675 be3b 65c4 773e c8df 413e 7da5 783d
00000140: e3a8 aebc 922c 813d cec6 de3d a609 203d
00000150: 1e90 393e 768d e3bd 8b06 f43d 5cbf 723e
00000160: d84e 563e 68bd 1e3e c262 36be 6ea9 3cbd
00000170: 45c9 273e 2413 d73d f6bd a1bc be2f b3bd
00000180: 9a8b a23d b817 c83d 0456 89bc 3d5b 3d3c
00000190: d01b 0fbe 66e9 393b b96e 0bbe 3a11 3dbe
000001a0: 8865 bcbd 1190 c13c 6580 a5bc 2c25 873d
000001b0: c8b6 a7bd bdb5 c73d 5c8b 323d 7190 12be
000001c0: a778 c4bd 2961 abbc ce11 093c b03e 70bd
000001d0: a1e0 2bbd 06f1 e2bd ba88 cdbd c189 6b3d
000001e0: d4b2 23be a603 29be e4e0 18be 5e49 1ebe
000001f0: a1b0 17be aac6 76bd 2c37 cabc fc6f 64bb
00000200: 91cc 0bbe 7e60 95bd 8f99 353e 10e1 863d
00000210: a55a 383d 5159 c73b 9584 e53c ae44 4d3e
00000220: da9a 773e 39d7 3a3e e66d 3b3e 7465 363d
00000230: f174 3fbc 3815 aa3d 31ad 4c3e 87fc d03d
00000240: a4d0 883c 8638 0ebd 968a 99bc a332 82bc
00000250: ba2b c23c 815f 8f3d 7642 39bd 81ee 52be
00000260: 074e a1bd 269a 8cbe 5630 4cbe 4e61 a1bd
00000270: caeb babd 34b7 2cbe 4b6b abbe 5a30 abbe
00000280: 1723 d7bd 1f03 c0bd 0ffc 2fbe 8bc0 c0bd
00000290: 7db8 94be 571e dfbd 23ab 3a39 a283 d1bd
000002a0: 2a02 933d 468a 60bd a23c 4bbe bd51 21bd
000002b0: 2eb8 b6bd b388 b8bd dfc5 a73c 0220 923c
000002c0: e3e4 3c3e d0ef 623e c227 a63e c57a 6c3e
000002d0: c504 2b3e ba94 423e 3832 3c3e 9715 0a3e
000002e0: 93af 033b 670c 193e 34aa 6e3e 0903 923e
000002f0: b7e2 d03d 3d21 e83d 339e 75bd 1664 b0bc
00000300: cd09 1a3d d626 fe3d ee37 70bd e45b 58bb
00000310: 5145 0c3d 091b 0b3e 046e bfbd 281e 10be
00000320: 0289 92bd 2f4d 0a3e 6c49 013d 9c78 083e
00000330: 1217 3a3d 1749 12bd 793f 4cbc 6941 8cbc
00000340: 00f0 49bd f92a bbbd c83c f8bc 75be 4bbb
00000350: 2fe5 cfbd 62ac cebd 98d9 333d 2eb4 84bd
00000360: afb3 8b3c cddd 3c3e 5b7f cc3d 2e35 0cbc
00000370: 658a 82bd cf2d a23d 9bb9 58bc 7cdb 013c
00000380: 7d67 84bd b577 6fbd e0ea 823d 4420 613e
00000390: 1c17 5a3b 033a 2a3d 6434 4d3e 6074 4f3d
000003a0: 8736 233c 3243 b5be 6d34 81be 7112 693e
000003b0: a704 223e 0a84 b13e a243 29bc ff9d 08be
000003c0: 6350 2f3b 707a 16be 7166 8d3e 521b 17bd
000003d0: e479 acbc 0b54 8cbb 79e8 1dbe 394f ab3d
000003e0: 6914 1c3e d545 8fbd b063 2fbe 1d33 80be
000003f0: 2c6d 64be c23b cf3d 39b9 f5bd abcd 79bd
